checkpoint.pth (torch, 2918 bytes, 5 tensors)

dense_00.weight f4 [4, 8]
000000 78 b2 f8 bd d2 95 c1 bd a1 e8 01 be 78 f9 61 3b
       -0.12143415 -0.09452404 -0.12686397 0.003448097
000010 39 4c 9e bb f6 72 b9 bb bb 95 2b bc 9a c5 ed 3b
       -0.004830864 -0.0056594564 -0.01047271 0.007256222
000020 ec 24 db be a8 a5 1d 3e cb c3 16 be 1b ca 80 3d
       -0.42801607 0.15395224 -0.14723127 0.062885486
000030 ce 06 63 3d 87 1f 03 40 54 c4 14 3e 92 bf 81 3d
       0.05542641 2.0487993 0.14528018 0.06335367
000040 59 e3 d6 3d a8 f9 08 3e 79 8e 08 3c af 72 74 bd
       0.10492582 0.13376486 0.008334749 -0.059679683
000050 19 14 3f 01 1c 50 07 29 af ca 47 26 8c 60 0d 80
       3.509558e-38 3.0045505e-14 6.931668e-16 -1.228496e-39
000060 e7 a5 c4 3d 42 95 af 3e 0e c1 7a bd 16 fc 81 bd
       0.09601956 0.34293562 -0.061219268 -0.0634691
000070 68 6d 54 ae ca 4e 18 2e 1e 66 d5 b4 a8 f0 e4 27
       -4.830039e-11 3.4630777e-11 -3.9748642e-07 6.3543632e-15

dense_00.bias f4 [4]
000000 d6 a0 c4 bd 96 0c 21 bf ed 93 04 b9 06 1c 12 bc
       -0.096009895 -0.6290983 -0.00012643608 -0.008917814

dense_01.weight f4 [4, 4]
000000 ea 19 54 3e d7 18 1e 3e 8a ef 33 bd 1c 19 8d 3e
       0.2071301 0.15439163 -0.043929614 0.2755822
000010 04 f7 d3 3d 26 cc bc 3e 39 6d 2a bd ff 9f f5 3d
       0.10349849 0.36874503 -0.04160807 0.119934075
000020 37 7c 1b 3f 14 45 ae 3e f6 f4 3b 3d 08 d9 d9 3b
       0.6073641 0.34037077 0.04588791 0.0066481866
000030 4c 8a 97 3e e6 5c 00 be 61 e5 98 3d 7c af 4d bd
       0.295977 -0.12535438 0.074656256 -0.050216183

dense_01.bias f4 [4]
000000 7e f9 eb be 22 ce 30 bf 70 40 a2 3f 59 60 80 bd
       -0.46088785 -0.69064534 1.2675915 -0.06268377

dense_02.weight f4 [1, 4]
000000 61 7f 93 3d cd b8 c7 3e 1a 92 f5 bd 91 85 48 3e
       0.0720203 0.3900818 -0.11990757 0.19582202
